outputs/weights_1990.pth (torch, 674418 bytes, 78 tensors)

step_size f4 [5]
0.099258564 0.12896535 0.14094289 0.17118272 0.09306581
00000000: 1348 cb3d 7e0f 043e 5553 103e 864a 2f3e
00000010: 4a99 be3d

prox.0.conv1.weight f4 [32, 2, 3, 3]
-0.10361018 -0.110641755 -0.22992788 -0.016279321 0.19993973 0.02798768 -0.09856369 0.06316083
-0.22038014 0.23785388 0.06404363 -0.130093 0.1659036 0.07908348 0.09846248 -0.19488104
0.048716646 -0.052702434 0.05899903 0.02718809 0.038667314 0.22973277 -0.1155322 -0.014923653
-0.16691846 -0.037889138 0.047800943 0.13049757 -0.034736592 0.009161312 -0.12031241 -0.15799074
-0.060343064 -0.054094415 -0.18112941 0.162087 -0.05811255 0.0019855003 -0.21128675 0.055452738
-0.16794233 -0.24010381 -0.12809007 -0.16228707 -0.06536747 0.21986726 -0.14541836 0.025231268
-0.14058582 -0.08988855 0.033599745 -0.23906992 -0.09736308 0.05469283 0.12933016 -0.08647334
0.18785809 -0.060512174 -0.15887035 -0.19471236 -0.115427345 0.06899226 0.032357223 0.052876104
-0.027239121 -0.039113853 0.21344371 0.2138518 0.2183861 -0.19708797 -0.10881195 0.08105089
0.22050543 -0.16087823 0.07056786 -0.05753363 0.22418611 0.016726453 -0.1673585 -0.07939683
-0.06892411 -0.080892704 -0.13153729 0.04833713 -0.17108424 -0.23674776 0.12252714 0.22447565
-0.054931354 0.09605366 -0.100742765 0.09666164 -0.15453473 0.121642105 0.09336424 0.22523022
-0.045792036 -0.21513654 -0.14444691 -0.018321209 0.14831097 0.19023637 -0.21449998 0.13265166
0.21989597 -0.049921088 0.24290855 0.04245387 0.031019356 0.004628844 -0.14647265 -0.18222748
0.037494183 0.004903409 -0.16937974 -0.053660575 0.11949191 0.18964732 0.26007465 -0.15572324
0.25262916 -0.16435392 -0.10097934 0.124054365 0.23779546 -0.049658775 -0.18632533 0.12083195
-0.1890629 0.1311752 -0.08934843 0.13550279 -0.21742162 -0.13644971 0.011147454 0.090146765
0.0013114604 0.24677457 -0.22781862 0.022874573 -0.042773783 -0.045362547 -0.10653348 0.15322277
0.00079803535 -0.2494953 -0.19518946 -0.01961203 0.06555353 -0.12559374 0.12051665 0.18764871
0.18118395 -0.15903138 -0.107035704 -0.04725749 0.039103866 -0.14398828 0.08781013 0.2155942
-0.143861 0.23825003 -0.24637978 0.11003376 -0.052522283 -0.25702432 -0.23418711 -0.1076574
-0.059813756 0.09693436 0.051323537 -0.023598155 -0.13903344 0.040788963 0.07169001 -0.056067083
0.022029145 0.0091960905 0.0045779524 0.23014683 0.05522148 0.07247507 0.14051524 -0.2076528
0.23931439 0.2309775 -0.024668798 -0.06601744 0.20944236 -0.10963109 -0.012196124 -0.20811531
-0.16773736 0.2288624 0.1384102 0.07150664 -0.11894215 -0.08117686 0.032449313 0.017201293
-0.07607192 -0.15175171 0.14414847 0.026157834 -0.24391721 0.13724655 -0.07189766 0.15925644
-0.10069795 0.04436795 0.17153536 0.12947595 -0.07395279 0.023992047 -0.10998455 -0.20227496
0.0802886 -0.017189445 0.06287781 0.0017859369 0.050217353 -0.029476784 0.050064433 0.016485516
-0.06904676 -0.18655562 0.13824807 0.054003175 -0.23252234 -0.14431667 -0.20056504 -0.028463922
-0.0068785213 0.08887559 -0.033459816 0.1666811 -0.09067121 0.11609636 -0.26069394 -0.14929312
-0.064937964 0.14183758 -0.24284656 -0.100492686 -0.17673115 -0.034877997 -0.06636603 -0.05588772
-0.1514738 -0.17435737 0.06734357 -0.09385541 -0.12407384 -0.23349051 -0.06707273 -0.1515623
00000000: 9331 d4bd 2598 e2bd 3772 6bbe 365c 85bc
00000010: 00bd 4c3e 6b46 e53c c3db c9bd 775a 813d
00000020: 55ab 61be f88f 733e 4f29 833d 1937 05be
00000030: a2e2 293e 85f6 a13d b2a6 c93d e58e 47be
00000040: 1b8b 473d 82de 57bd f8a8 713d 8fb9 de3c
00000050: 9e61 1e3d 113f 6b3e 259c ecbd 5682 74bc
00000060: acec 2abe a431 1bbd ecca 433d 28a1 053e
00000070: f547 0ebd 5419 163c 5a66 f6bd 53c8 21be
00000080: 4a2a 77bd 1b92 5dbd fd79 39be 22fa 253e
00000090: 6d07 6ebd 2b1f 023b 8e5b 58be 6922 633d
000000a0: 13f9 2bbe c6dd 75be 0b2a 03be 952e 26be
000000b0: 61df 85bd e224 613e 8de8 14be ceb1 ce3c
000000c0: bbf5 0fbe 7d17 b8bd e39f 093d bfce 74be
000000d0: 4b66 c7bd 9705 603d 206f 043e ef18 b1bd
000000e0: df5d 403e 9ddb 77bd e9ae 22be ad62 47be
000000f0: 2c65 ecbd d04b 8d3d 0289 043d 9d94 583d
00000100: 9424 dfbc d935 20bd fd90 5a3e f7fb 5a3e
00000110: 9ba0 5f3e 6ed1 49be cdd8 debd 02fe a53d
00000120: 2dcc 613e 43bd 24be e285 903d 62a8 6bbd
00000130: 0b91 653e ea05 893c 0760 2bbe ce9a a2bd
00000140: 1528 8dbd 13ab a5bd b6b1 06be 28fd 453d
00000150: b530 2fbe 016e 72be 82ef fa3d f2dc 653e
00000160: b3ff 60bd c8b7 c43d 3952 cebd 8af6 c53d
00000170: 5a3e 1ebe 7f1f f93d c035 bf3d c0a2 663e
00000180: 6e90 3bbd c14c 5cbe e4e9 13be 5c16 96bc
00000190: d5de 173e 53cd 423e e2a5 5bbe d6d5 073e
000001a0: 692c 613e 0e7a 4cbd 05bd 783e 1ce4 2d3d
000001b0: 4e1c fe3c 8fad 973b edfc 15be d799 3abe
000001c0: 8093 193d c7ac a03b e271 2dbe 31cb 5bbd
000001d0: 2db8 f43d e832 423e 8128 853e ea75 1fbe
000001e0: 9c58 813e 654c 28be 42ce cebd 3710 fe3d
000001f0: a780 733e 0067 4bbd 11cc 3ebe be76 f73d
00000200: b499 41be cb52 063e 4ffc b6bd 3ec1 0a3e
00000210: c6a3 5ebe 79b9 0bbe d0a3 363c de9e b83d
00000220: 4fe5 ab3a 79b2 7c3e 4949 69be 7563 bb3c
00000230: 9033 2fbd 14ce 39bd 3a2e dabd 6ee6 1c3e
00000240: 3f33 513a b27b 7fbe bfdf 47be 68a9 a0bc
00000250: ee40 863d a59b 00be 6fd1 f63d fc26 403e
00000260: 4988 393e 1fd9 22be 8935 dbbd 1291 41bd
00000270: 602b 203d aa71 13be ccd5 b33d bac4 5c3e
00000280: 4c50 13be d1f7 733e fb4a 7cbe 6159 e13d
00000290: 9b21 57bd b198 83be bfce 6fbe 7c7b dcbd
000002a0: 45ff 74bd 8685 c63d a138 523d eb50 c1bc
000002b0: c85e 0ebe 5412 273d 36d2 923d 99a6 65bd
000002c0: 7776 b43c 33ab 163c a602 963b 9cab 6b3e
000002d0: eb2f 623d cf6d 943d 3ae3 0f3e f0a2 54be
000002e0: d50e 753e 5e85 6c3e 3816 cabc 2734 87bd
000002f0: 0f78 563e 4486 e0bd 40d2 47bc 2e1c 55be
00000300: 58c3 2bbe e85a 6a3e 67bb 0d3e 1372 923d
00000310: f197 f3bd 0e40 a6bd 92e9 043d bae9 8c3c
00000320: 98cb 9bbd cd64 1bbe a89b 133e f448 d63c
00000330: 6fc5 79be 5c8a 0c3e 153f 93bd 1f14 233e
00000340: ba3a cebd 2bbb 353d f7a6 2f3e 5895 043e
00000350: 8f74 97bd f88a c43c 943f e1bd 2b21 4fbe
00000360: 596e a43d e1d0 8cbc 15c6 803d 1916 ea3a
00000370: b6b0 4d3d 4c79 f1bc 5d10 4d3d a20c 873c
00000380: 6368 8dbd 7008 3fbe e790 0d3e 6f32 5d3d
00000390: 561a 6ebe c0c7 13be ec60 4dbe 2c2d e9bc
000003a0: 3865 e1bb 6804 b63d 290d 09bd 73ae 2a3e
000003b0: d4b1 b9bd eec3 ed3d ad79 85be 4ce0 18be
000003c0: 32fe 84bd df3d 113e c5ac 78be 1ccf cdbd
000003d0: 03f9 34be 3bdc 0ebd eaea 87bd 86ea 64bd
000003e0: f31b 1bbe bd8a 32be 6deb 893d 4437 c0bd
000003f0: 6d1a febd 2318 6fbe 6d5d 89bd 2633 1bbe

prox.0.conv1.bias f4 [32]
-0.11364741 -0.1535985 0.12695087 0.12765534 0.18888089 -0.21349414 -0.2136957 -0.12135374
0.14070491 -0.10848904 -0.018979372 0.075495794 0.038538177 0.17510179 0.033108786 0.0102851475
0.032354716 -0.19582643 0.16656551 -0.0025098172 0.10919855 0.09174512 0.18745247 0.14075696
-0.17418702 -0.2065941 -0.093437344 0.091022976 -0.07054005 -0.19038545 -0.0064181346 -0.14135878
00000000: f9bf e8bd ed48 1dbe 69ff 013e 15b8 023e
00000010: fe69 413e 359e 5abe 0cd3 5abe 4f88 f8bd
00000020: f314 103e 802f debd a17a 9bbc 8a9d 9a3d
00000030: 35da 1d3d e24d 333e 149d 073d 0983 283c
00000040: 6186 043d b986 48be 2690 2a3e bf7b 24bb
00000050: 7da3 df3d dee4 bb3d 8af3 3f3e 9822 103e
00000060: 155e 32be 678d 53be 145c bfbd 416a ba3d
00000070: 4d77 90bd 67f4 42be 374f d2bb 5bc0 10be

prox.0.conv2.weight f4 [32, 32, 3, 3]
0.03830357 0.04749234 0.028466769 0.03415911 0.044408552 -0.0381248 -0.019038059 4.750184e-05
0.068171635 0.017494952 -0.054691825 0.036955405 -0.04790548 -0.0452253 -0.050490275 -0.042778257
-0.06377941 -0.012865784 -0.04444692 0.014482887 -0.039176628 0.038403545 0.025886606 -0.05928157
-0.055236712 0.004775744 -0.006776213 0.020249803 -0.057809032 -0.03258208 0.012462158 -0.03718972
-0.054201096 0.04376999 0.020630917 -0.037463415 0.009730978 0.053051203 -0.02925054 0.027541634
0.0003669896 0.048515514 0.011948118 -0.06666499 -0.005445055 0.045608852 0.023748169 -0.0414434
0.039299365 -0.043781772 -0.040742483 -0.023751723 0.0043438324 0.017200962 0.052127942 0.036437187
-0.029475192 0.016987836 -0.030556705 -0.028440958 0.014241553 -0.016063195 -0.012072209 -0.057424925
-0.060742784 0.0173111 -0.05519487 -0.008084516 -0.046972543 -0.013547792 0.014595377 -0.04535587
-0.008831549 -0.0013819941 0.0304668 -0.0519731 -0.048419114 0.030629393 -0.024883484 -0.03465942
0.031794555 0.00692099 0.05633161 -0.03828933 0.027960887 -0.046500776 -0.045899343 -0.068333305
-0.026882427 0.015244483 -0.04030543 -0.09172209 -0.03270613 0.002799705 -0.018634861 0.027408123
-0.0509491 -0.079680696 -0.07522756 0.022719637 -0.043993454 -0.021970732 0.041134953 0.024627918
0.050020505 -0.015133819 0.035156853 0.0683722 0.04680204 0.060539503 0.05103171 0.007983182
0.020350596 -0.04794751 0.021411255 -0.008362701 0.03815964 0.038777098 -0.017450051 0.039949797
0.011165668 -0.049392644 -0.040468033 0.030341355 -0.04143785 -0.010191818 0.054615892 -0.03134008
0.024859944 -0.0205373 0.028173074 -0.038929526 0.028710166 -0.045036156 0.010762283 0.057505716
-0.0019981533 -0.030611614 0.058425378 -0.035526082 -0.044216618 0.03639314 -0.023297073 0.02191142
0.02883807 0.022925347 -0.01607451 -0.0041670254 0.05192232 -0.0036882905 0.064062774 -0.013343439
-0.02378194 -0.048639134 0.011300702 -0.050300594 0.040760506 -0.04591996 -0.020490361 0.0052197245
-0.0083810715 0.041037355 0.05100525 -0.039618198 0.006173899 0.002538876 -0.047383804 0.018806102
0.055330697 0.06502439 -0.02118664 0.021429872 -0.034850784 0.0024203998 0.0025811454 -0.039609134
0.0077721933 -0.0046348386 -0.016304972 -0.02947528 0.04832651 0.032247383 0.052680038 0.0043072416
0.0018667819 0.04439435 0.0036751858 -0.043771174 0.021826657 0.057813253 -0.023291277 0.063427255
0.046095565 0.0265525 0.065969564 0.01390077 0.020564372 0.01549113 -0.030458182 0.047705106
-0.01219828 0.06536557 0.0034420877 -0.04028739 0.04072894 -0.0050344295 0.0015695327 -0.05237482
0.024503468 -0.028048005 -0.041436754 0.060812503 -0.006955964 0.023814874 -0.041663736 -0.00811009
-0.0045650667 -0.01474877 -0.050200336 -0.04767226 0.015658328 -0.018922271 0.04080719 0.026082532
0.063236386 -0.011064825 0.0043125167 0.01757358 -0.0056643942 3.1001564e-05 -0.05150145 0.04566757
-0.033440415 0.020353558 0.020583967 0.027914492 -0.027236981 0.0141211795 -0.007640242 0.029331526
-0.0037306396 0.049549274 -0.025197877 -0.012293751 0.036927916 0.034259688 -0.04109075 -0.040297043
0.0048331954 -0.04992223 0.0057464503 0.016383236 0.060906008 -0.04958703 -0.012531761 -0.00596123
00000000: 34e4 1c3d 5487 423d 2433 e93c 6cea 0b3d
00000010: bee5 353d c028 1cbd b4f5 9bbc b63c 4738
00000020: 929d 8b3d 9351 8f3c 8904 60bd 8d5e 173d
00000030: 8938 44bd 2a3e 39bd e4ce 4ebd 4138 2fbd
00000040: c89e 82bd 02cb 52bc f90d 36bd a249 6d3c
00000050: ac77 20bd 094d 1d3d 2610 d43c 3bd1 72bd
00000060: e43f 62bd d87d 9c3b ff0a debb eae2 a53c
00000070: 2ac9 6cbd ca74 05bd 142e 4c3c 3f54 18bd
00000080: f801 5ebd 2948 333d 2b02 a93c 3d73 19bd
00000090: ae6e 1f3c 384c 593d d49e efbc fe9e e13c
000000a0: 8368 c039 34b8 463d 0ac2 433c a787 88bd
000000b0: 6f6c b2bb 59d0 3a3d 858b c23c 8ec0 29bd
000000c0: 5ff8 203d 8454 33bd 97e1 26bd f992 c2bc
000000d0: b556 8e3b 08e9 8c3c 1c84 553d 293f 153d
000000e0: f575 f1bc 132a 8b3c 0e52 fabc 03fd e8bc
000000f0: 6755 693c f696 83bc 84ca 45bc 6636 6bbd
00000100: 6dcd 78bd 02d0 8d3c 0414 62bd eb74 04bc
00000110: 4866 40bd 8ff7 5dbc 7321 6f3c 14c7 39bd
00000120: 34b2 10bc 0724 b5ba 8395 f93c bfe1 54bd
00000130: 1f53 46bd 7eea fa3c 73d8 cbbc 09f7 0dbd
00000140: 023b 023d 79c9 e23b f9bb 663d 46d5 1cbd
00000150: 3b0e e53c 9977 3ebd f300 3cbd 55f2 8bbd
00000160: 8938 dcbc ffc3 793c 4e17 25bd cbd8 bbbd
00000170: ddf6 05bd 417b 373b 23a8 98bc 0087 e03c
00000180: 01b0 50bd a22f a3bd e810 9abd 881e ba3c
00000190: 7b32 34bd f7fb b3bc 207d 283d 7dc0 c93c
000001a0: 4de2 4c3d d6f3 77bc a200 103d b906 8c3d
000001b0: 7fb3 3f3d 45f8 773d a006 513d e4cb 023c
000001c0: 4bb6 a63c 9c64 44bd a866 af3c b603 09bc
000001d0: 484d 1c3d bcd4 1e3d 69f3 8ebc 66a2 233d
000001e0: 35f0 363c f14f 4abd cfc1 25bd 6f8e f83c
000001f0: bcba 29bd 95fb 26bc eab4 5f3d 755e 00bd
00000200: 15a7 cb3c d73d a8bc 38cb e63c 9174 1fbd
00000210: 9531 eb3c d577 38bd 4954 303c 1d8b 6b3d
00000220: 73f3 02bb 35c5 fabc 734f 6f3d cc83 11bd
00000230: 7c1c 35bd f910 153d 81d9 bebc 947f b33c
00000240: d13d ec3c f0cd bb3c b1ae 83bc 8b8b 88bb
00000250: 80ac 543d 3fb7 71bb 5833 833d 719e 5abc
00000260: 58d2 c2bc d439 47bd 9426 393c ff07 4ebd
00000270: 7df4 263d 9116 3cbd 67db a7bc 390a ab3b
00000280: c350 09bc c916 283d e2ea 503d b146 22bd
00000290: 6b4e ca3b 4563 263b 8515 42bd 410f 9a3c
000002a0: 71a2 623d 822b 853d 9b8f adbc b38d af3c
000002b0: b2bf 0ebd 929f 1e3b 6f28 293b 303d 22bd
000002c0: e2ad fe3b d8df 97bb 0192 85bc 2476 f1bc
000002d0: 05f2 453d d515 043d 06c7 573d c323 8d3b
000002e0: ceae f43a dad6 353d 63db 703b 6749 33bd
000002f0: d1cd b23c 97cd 6c3d 59cd bebc 26e6 813d
00000300: b4ce 3c3d a184 d93c 0d1b 873d 0ec0 633c
00000310: 9d76 a83c 82ce 7d3c 7083 f9bc 6e66 433d
00000320: 4bdb 47bc 62de 853d a694 613b 6404 25bd
00000330: 64d3 263d dbf7 a4bb c7b8 cd3a fb86 56bd
00000340: 7fbb c83c eec4 e5bc 96b9 29bd 8816 793d
00000350: dbee e3bb 6917 c33c 98a7 2abd 2fe0 04bc
00000360: 8e96 95bb d3a4 71bc de9e 4dbd fd43 43bd
00000370: e545 803c e102 9bbc 7125 273d 09ab d53c
00000380: 1482 813d 3d49 35bc 0350 8d3b 78f6 8f3c
00000390: 629c b9bb ad07 0238 2ff3 52bd eb0d 3b3d
000003a0: d1f8 08bd 81bc a63c b59f a83c efac e43c
000003b0: 1720 dfbc 855c 673c ff5a fabb ab48 f03c
000003c0: bf7d 74bb 2ef4 4a3d c76b cebc bb6b 49bc
000003d0: ba41 173d e353 0c3d c64e 28bd 830e 25bd
000003e0: c85f 9e3b 417b 4cbd b84c bc3b 2336 863c
000003f0: 9478 793d c51b 4bbd 0452 4dbc 6c56 c3bb

prox.0.conv2.bias f4 [32]
-0.036572747 0.05224939 0.012917528 0.0108677875 0.048501156 0.068881884 0.008931486 0.048202652
-0.018026507 0.04074897 0.028548755 -0.008634153 0.0077349665 -0.04495788 0.030438744 0.062553264
-0.051056918 -0.050034896 -0.043622274 0.030555122 0.0061384626 0.008221711 0.027950322 0.01873605
0.04292257 0.059543807 0.035717208 0.0048197513 0.037145726 0.04095789 0.03904297 0.06855056
00000000: 4ecd 15bd 7503 563d 0aa4 533c ce0e 323c
00000010: 26a9 463d f211 8d3d 5e55 123c 2570 453d
00000020: 53ac 93bc 64e8 263d 14df e93c 4376 0dbc
00000030: 9a75 fd3b c125 38bd ac5a f93c ed1b 803d
00000040: 0f21 51bd 64f1 4cbd 45ad 32bd bc4e fa3c
00000050: 2825 c93b 5bb4 063c 13f8 e43c 587c 993c
00000060: 94cf 2f3d 35e4 733d 354c 123d 01ef 9d3b
00000070: 1e26 183d 76c3 273d 85eb 1f3d 3c64 8c3d

prox.0.conv3.weight f4 [1, 32, 3, 3]
-0.011694573 0.0033688995 -0.059982516 0.039993323 -0.015624917 -0.06203484 -0.00783297 0.034329034
0.005292274 -0.0039366763 0.04527907 0.05311265 -0.030074501 0.054289397 0.034506015 0.0037164742
0.0536429 -0.020805612 0.011010283 0.010997055 -0.023881713 0.009383257 -0.039004914 -0.06351005
0.042300314 0.04782848 -0.05795684 -0.039145216 -0.061445702 0.049495284 -0.012586536 -0.05741276
0.033120595 0.05009527 -0.019878613 0.016292097 0.04308513 0.040585395 0.019838352 -0.019827891
-0.04172374 -0.03383857 -0.04703794 -0.042494655 0.041000914 -0.027253062 0.05600814 0.019723766
-0.055426527 0.015654385 0.049291797 -0.028584095 0.006584622 -0.026823666 -0.009416379 0.0073061516
-0.001142064 0.003314495 -0.03485475 -0.046018306 -0.023385644 0.042324472 -0.011574374 -0.028534066
-0.0061482177 -0.04700416 -0.044539463 0.005606761 -0.0300655 0.0111647565 0.046249516 -0.0004617877
-0.0035240385 -0.03285731 -0.007097642 0.02416004 0.02805449 0.043216687 -0.056037255 0.034942567
0.04753206 -0.00085503585 -0.028592266 -0.0013914513 -0.030798826 -0.025549516 -0.05196498 0.020960022
-0.0025978175 0.050918493 0.027173547 -0.02041496 0.038575612 -0.004419704 0.0065344237 -0.0097146025
0.032767136 0.04525497 0.00027059202 -0.017595554 0.021627674 0.03323437 0.029762398 -0.04763301
-0.0232836 0.01281791 -0.029394278 -0.004148771 -0.009782845 -0.03914385 0.027586488 -0.058097463
-0.024437474 -0.032282896 -0.0573794 -0.0014969499 -0.019179918 0.01122119 -0.018392403 -0.021759799
-0.041847736 -0.014355181 0.042299394 -0.038238883 0.023253802 0.06457591 0.021525566 0.008284987
0.004686262 0.024711957 0.0034468279 0.042608783 0.056222774 0.034546122 -0.014829382 -0.05155094
0.024917688 0.0001030146 -0.0061667725 0.020029416 0.014373726 0.06042135 0.05535672 -0.01790477
-0.021811489 0.01683489 0.030052114 0.06777058 0.05280387 -0.031061793 0.0039910106 0.019468036
-0.03694907 -0.009912518 0.047053732 -0.049615856 -0.01442265 0.03092015 -0.014704826 -0.020168174
-0.049637128 -0.008634533 0.010229528 0.024858443 0.02506501 -0.007911149 -0.031999636 0.06769116
-0.044331606 0.048043497 -0.05684289 -0.03395902 0.026219593 -0.037642546 -0.025112914 0.0014988336
-0.008570508 0.018320588 -0.010353588 -0.034086566 -0.007627338 -0.031016376 -0.03244044 0.04095233
0.013388863 -0.012404032 -0.0053568394 0.031615224 -0.058327965 0.016790573 0.03498803 -0.018947786
0.06877317 -0.005953737 -0.0076974304 -0.014047256 -0.025615904 -0.012961945 -0.043799076 -0.003914402
0.03132501 -0.054828614 0.04092257 -0.045650456 0.046440095 -0.037801012 -0.003230957 0.007402068
-0.024791617 0.037900306 -0.06639744 0.0052651386 -0.0017349179 0.010715593 -0.052494578 0.04726085
-0.058352757 0.04056071 0.04199907 -0.012436511 -0.01638085 -0.023183152 -0.028357405 -0.031192329
-0.02226453 -0.005879033 0.03092067 0.04955941 -0.031436022 0.049343668 0.06128175 -0.028324978
0.015615398 -0.0047764224 -0.017293328 0.047586206 0.04278114 -0.05142369 -0.05898305 0.015810568
0.042664148 0.0039079306 -0.03606926 0.030198295 -0.0061312146 -0.0034119657 0.034880176 -0.020903844
0.038045622 -0.05673543 -0.034008298 0.051879004 0.034256183 -0.049095057 -0.00357161 0.0036574877
00000000: 989a 3fbc c1c8 5c3b 3ab0 75bd 0ad0 233d
00000010: a7ff 7fbc 3f18 7ebd db55 00bc 9a9c 0c3d
00000020: d06a ad3b 3cff 80bb 8c76 393d a68c 593d
00000030: cd5e f6bc 8f5e 5e3d 2e56 0d3d 1790 733b
00000040: a8b8 5b3d 8870 aabc 7964 343c fe2c 343c
00000050: 95a3 c3bc 3bbc 193c 9ec3 1fbd 8f11 82bd
00000060: 1843 2d3d cce7 433d 2764 6dbd bc56 20bd
00000070: 7dae 7bbd 91bb 4a3d c237 4ebc a429 6bbd
00000080: 76a9 073d b330 4d3d 79d8 a2bc 0177 853c
00000090: 097a 303d df3c 263d 0a84 a23c 1a6e a2bc
000000a0: 83e6 2abd 509a 0abd dbaa 40bd e00e 2ebd
000000b0: 93f0 273d d041 dfbc cb68 653d bc93 a13c
000000c0: ed06 63bd a03d 803c 32e6 493d 3129 eabc
000000d0: d0c3 d73b 4ebd dbbc 2847 1abc 7168 ef3b
000000e0: 4fb1 95ba 0038 593b dbc3 0ebd b17d 3cbd
000000f0: 4093 bfbc 6d5c 2d3d 71a2 3dbc 46c0 e9bc
00000100: fd76 c9bb 6f87 40bd 036f 36bd ecb8 b73b
00000110: ec4b f6bc 62ec 363c 2270 3d3d 191c f2b9
00000120: 8ef3 66bb 6395 06bd 5693 e8bb 47eb c53c
00000130: 88d2 e53c fb03 313d 5287 65bd f01f 0f3d
00000140: fab0 423d 7c24 60ba 543a eabc 5c61 b6ba
00000150: d24d fcbc 384d d1bc 3bd9 54bd 5ab4 ab3c
00000160: 2540 2abb e98f 503d 0f9b de3c 463d a7bc
00000170: 7601 1e3d 2ad3 90bb b81e d63b ff29 1fbc
00000180: d536 063d 475d 393d 3fde 8d39 8d24 90bc
00000190: 852c b13c c320 083d 46d0 f33c d51a 43bd
000001a0: 40bd bebc 3602 523c 45cc f0bc 6af2 87bb
000001b0: 3a48 20bc 4d55 20bd 0ffd e13c 9bf7 6dbd
000001c0: 1931 c8bc 123b 04bd a906 6bbd 4e35 c4ba
000001d0: 341f 9dbc 15d9 373c aaab 96bc 9b41 b2bc
000001e0: 8868 2bbd fe31 6bbc 2142 2d3d 60a0 1cbd
000001f0: c27e be3c 6040 843d 6256 b03c c1bd 073c
00000200: 378f 993b bb70 ca3c 2de4 613b 8c86 2e3d
00000210: da49 663d 3c80 0d3d f0f6 72bc 1427 53bd
00000220: 2e20 cc3c 8b09 d838 a312 cabb bb14 a43c
00000230: c77f 6b3c 617c 773d babd 623d 06ad 92bc
00000240: 02ae b2bc 53e9 893c da2f f63c 4dcb 8a3d
00000250: df48 583d 4d75 febc 06c7 823b 6e7b 9f3c
00000260: e857 17bd 1d68 22bc 6abb 403d ff39 4bbd
00000270: fb4c 6cbc 414c fd3c 83ec 70bc ba37 a5bc
00000280: 4d50 4bbd db77 0dbc c099 273c efa3 cb3c
00000290: 2355 cd3c c49d 01bc 0d12 03bd aaa1 8a3d
000002a0: 0f95 35bd 42c9 443d 17d4 68bd 9d18 0bbd
000002b0: 79ca d63c 122f 1abd 99b9 cdbc 8374 c43a
000002c0: 516b 0cbc 0f15 963c 18a2 29bc 5b9e 0bbd
000002d0: c0ee f9bb 0e16 febc 44e0 04bd a1bd 273d
000002e0: f65c 5b3c 483a 4bbc 6d88 afbb f77e 013d
000002f0: 4ee9 6ebd 628c 893c 9c4f 0f3d 6338 9bbc
00000300: f3d8 8c3d 9117 c3bb ba3a fcbb 7626 66bc
00000310: 72d8 d1bc 565e 54bc a966 33bd 6244 80bb
00000320: a74e 003d f893 60bd 6d9e 273d f9fb 3abd
00000330: f837 3e3d 3cd5 1abd 77be 53bb 0c8d f23b
00000340: ca17 cbbc 5a3d 1b3d 62fb 87bd 2f87 ac3b
00000350: 2f66 e3ba 7490 2f3c 8e04 57bd 9894 413d
00000360: 4d03 6fbd fd22 263d 3807 2c3d 82c2 4bbc
00000370: 2231 86bc 98ea bdbc ca4d e8bc 0e87 ffbc
00000380: 1b64 b6bc e7a4 c0bb 584d fd3c cffe 4a3d
00000390: 0fc3 00bd 961c 4a3d 9302 7b3d c909 e8bc
000003a0: bad7 7f3c 8983 9cbb bdaa 8dbc c1e9 423d
000003b0: 473b 2f3d a6a1 52bd 3698 71bd 2a85 813c
000003c0: 9ac0 2e3d 190e 803b 5cbd 13bd 6a62 f73c
000003d0: 5be8 c8bb 499b 5fbb 84de 0e3d 8a3e abbc
000003e0: bad5 1b3d 6963 68bd 494c 0bbd 147f 543d
000003f0: 3650 0c3d e617 49bd ac11 6abb 76b2 6f3b

prox.1.conv1.weight f4 [32, 2, 3, 3]
-0.048679784 0.2267499 0.04096179 0.20567736 -0.07249227 0.03949338 0.05889996 -0.10922819
-0.14195946 0.06875986 0.07216545 -0.16201633 -0.056249112 0.23292565 -0.056996338 0.21623161
0.07666899 -0.13187735 0.02542094 -0.21773523 -0.057411876 -0.07352808 -0.012961881 0.19054382
-0.114934154 -0.060963113 -0.156325 -0.04113407 0.0074811177 -0.02200892 0.14277783 -0.109613374
-0.023549048 -0.1526393 -0.10263497 0.06938221 -0.16259375 0.13834725 -0.10994092 -0.0040686596
-0.23553176 0.17915954 0.22962028 0.113150276 -0.25370735 -0.057908364 0.15296026 -0.18643734
-0.09933015 -0.014231235 0.053259157 0.054389726 0.20064533 -0.22648007 -0.005261892 -0.016400669
-0.1822515 0.17748955 0.16734195 0.14616671 0.12487649 -0.2562895 -0.16293001 -0.035963643
-0.1723367 -0.076908834 -0.08843751 -0.14016584 0.1018359 -0.19272916 0.20538399 -0.05739082
-0.17617586 -0.035780463 0.095826246 -0.1818694 0.00513264 0.058129437 -0.029039625 0.2168472
-0.12366785 0.02203033 0.14342831 0.0938941 0.10109672 0.01725063 0.14070901 -0.121260084
0.23834349 -0.13887267 -0.16223954 -0.18312931 -0.29851794 -0.21379161 -0.0021452415 -0.24689762
-0.05652506 0.113730624 0.16641645 -0.211741 0.0011324229 -0.22413026 0.060817603 -0.051268294
0.18358278 0.20704323 -0.05467591 0.013152206 -0.19152015 0.035111103 -0.15639536 0.047893435
0.17753203 -0.23827294 0.016963623 -0.21875323 -0.08819436 0.15945348 -0.039846547 0.0406235
-0.034397155 -0.16277105 -0.046460357 0.08572104 0.020479897 -0.17044362 0.18831787 0.1208532
0.022218399 -0.08344792 0.047357585 0.1127575 0.15004964 -0.20906587 -0.022522485 -0.24359547
0.1669985 -0.10729552 -0.10639567 0.1990125 0.16472147 -0.21737444 -0.076929376 0.11804862
-0.0062400196 0.07832607 0.22807114 0.20569205 -0.10886968 -0.026054058 -0.045866292 0.17196971
0.1644044 -0.013494383 -0.030091815 0.044957627 -0.22920872 0.24120021 -0.17169929 0.118184604
-0.10371791 0.19367033 0.037461337 -0.15255152 -0.07262898 -0.15715222 -0.15080506 0.20869358
0.10324166 -0.057143565 0.19669981 -0.13075134 0.1986376 0.13148765 0.052132618 -0.09490513
0.0041881576 -0.17362523 0.06532978 0.15554795 0.050819613 -0.03334046 -0.028578172 -0.18071884
-0.225069 -0.18276747 -0.17476435 0.11816444 0.052421343 -0.12254821 -0.21240991 -0.013684299
-0.07321596 0.21939468 0.044195913 -0.109570175 0.1496356 -0.094114944 -0.12126967 0.15881512
0.11405324 0.14999422 -0.24186723 0.16023238 0.13784918 0.1494871 -0.13503264 -0.004795382
-0.16900538 0.0991808 -0.22141708 -0.23006496 -0.13068278 -0.06040137 -0.112260744 -0.01354707
0.22853842 -0.02088687 0.15539844 -0.11016954 -0.2166443 -0.054132953 0.0524206 0.19762632
0.12836204 -0.046876602 -0.17107454 0.10661994 0.032746386 -0.1463074 0.036385205 0.008526461
0.044343878 0.04416871 -0.015937531 -0.0713241 0.038322367 0.11916643 0.185339 -0.16981968
-0.17994222 -0.17045467 -0.15907206 -0.04434299 -0.1695942 -0.13028832 -0.062858954 0.20647092
-0.06978664 0.13643126 0.20656185 -0.019961718 0.053040255 0.029676693 0.040841896 0.05295585
00000000: 7464 47bd 2031 683e 8dc7 273d 169d 523e
00000010: d476 94bd cfc3 213d 1641 713d 07b3 dfbd
00000020: d25d 11be f8d1 8c3d 7bcb 933d 9ce7 25be
00000030: 7865 66bd 1084 6e3e fe74 69bd d26b 5d3e
00000040: a204 9d3d db0a 07be 933f d03c fcf5 5ebe
00000050: b728 6bbd e495 96bd 125e 54bc eb1d 433e
00000060: 9962 ebbd 75b4 79bd a913 20be 337c 28bd
00000070: 2a24 f53b 0d4c b4bc 5a34 123e fa7c e0bd
00000080: efe9 c0bc 7a4d 1cbe 4832 d2bd 4318 8e3d
00000090: fa7e 26be e7aa 0d3e b428 e1bd 6452 85bb
000000a0: 3d2f 71be 9975 373e 9421 6b3e 55bb e73d
000000b0: eee5 81be 5231 6dbd 9da1 1c3e 6ee9 3ebe
000000c0: 9b6d cbbd 202a 69bc 4626 5a3d c3c7 5e3d
000000d0: f875 4d3e 64ea 67be f36b acbb b25a 86bc
000000e0: 23a0 3abe d2bf 353e b05b 2b3e baac 153e
000000f0: 3fbf ff3d 6138 83be 20d7 26be 9d4e 13bd
00000100: 0879 30be 6182 9dbd ba1e b5bd a287 0fbe
00000110: 578f d03d cb5a 45be 2e50 523e a312 6bbd
00000120: 7267 34be 898e 12bd 8d40 c43d f93b 3abe
00000130: b42f a83b 2219 6e3d 82e4 edbc 310d 5e3e
00000140: 9245 fdbd f378 b43c dfde 123e 8d4b c03d
00000150: cc0b cf3d 3151 8d3c 0616 103e 3557 f8bd
00000160: 5110 743e a334 0ebe 1f22 26be 4086 3bbe
00000170: 58d7 98be 30ec 5abe 2e97 0cbb bbd2 7cbe
00000180: d286 67bd 9aeb e83d 1369 2a3e a2d2 58be
00000190: cf6d 943a 6782 65be e11b 793d b4fe 51bd
000001a0: 20fd 3b3e 2403 543e d9f3 5fbd 5a7c 573c
000001b0: dc1d 44be a9d0 0f3d 1b26 20be e82b 443d
000001c0: f5ca 353e d2fd 73be 4cf7 8a3c d900 60be
000001d0: 3f9f b4bd c647 233e 2236 23bd d464 263d
000001e0: 08e4 0cbd 74ad 26be 374d 3ebd 838e af3d
000001f0: 75c5 a73c c688 2ebe 66d6 403e e281 f73d
00000200: 5c03 b63c bee6 aabd 07fa 413d 67ed e63d
00000210: 9da6 193e 5d15 56be 1381 b8bc 1771 79be
00000220: a801 2b3e c1bd dbbd f9e5 d9bd efc9 4b3e
00000230: bfac 283e 6897 5ebe 268d 9dbd 7ac3 f13d
00000240: 1479 ccbb 6b69 a03d 7b8b 693e f0a0 523e
00000250: 11f7 debd 526f d5bc 4bde 3bbd d418 303e
00000260: a159 283e 8b17 5dbc 1c83 f6bc 7d25 383d
00000270: b1b5 6abe 30fd 763e f0d1 2fbe c50a f23d
00000280: 0e6a d4bd 8451 463e 0f71 193d 7736 1cbe
00000290: 81be 94bd 83ec 20be a46c 1abe c5b3 553e
000002a0: 5d70 d33d 5f0f 6abd ad6b 493e aee3 05be
000002b0: a867 4b3e b3a4 063e 0389 553d 9f5d c2bd
000002c0: d03c 893b d0ca 31be 9fcb 853d f647 1f3e
000002d0: 3a28 503d 0290 08bd c51c eabc 5c0e 39be
000002e0: 7d78 66be 6527 3bbe 6df5 32be 3300 f23d
000002f0: c3b7 563d 8efa fabd fc81 59be 1c34 60bc
00000300: 40f2 95bd 00a9 603e c606 353d 5466 e0bd
00000310: 133a 193e 56bf c0bd 3c5c f8bd 6ea0 223e
00000320: bf94 e93d 1698 193e 0bac 77be f513 243e
00000330: 5628 0d3e 2513 193e ff45 0abe 9422 9dbb
00000340: bf0f 2dbe 4e1f cb3d 29bb 62be 2696 6bbe
00000350: b5d1 05be 6d67 77bd f6e8 e5bd 88f4 5dbc
00000360: fa05 6a3e f11a abbc c520 1f3e 91a0 e1bd
00000370: 01d8 5dbe 84ba 5dbd fcb6 563d 8e5e 4a3e
00000380: 5771 033e ae01 40bd 2a2e 2fbe 8e5b da3d
00000390: 1321 063d 9bd1 15be a708 153d 92b2 0b3c
000003a0: eda1 353d 40ea 343d 6d8f 82bc 5f12 92bd
000003b0: eaf7 1c3d 870d f43d 82c9 3d3e 36e5 2dbe
000003c0: c642 38be ab8b 2ebe c9e3 22be ffa0 35bd
000003d0: 1aaa 2dbe 4d6a 05be 32bc 80bd 1d6d 533e
000003e0: 4cec 8ebd a3b4 0b3e f384 533e c286 a3bc
000003f0: bd40 593d 891c f33c d549 273d 3ce8 583d

prox.1.conv1.bias f4 [32]
-0.00038087918 0.17538893 0.17568699 0.0742967 -0.15642248 0.07863653 0.18834141 0.06159149
-0.19014497 0.20150921 0.08584349 -0.13835187 0.15863879 -0.13141225 -0.015814992 -0.12786274
-0.098141365 -0.14157155 -0.21259938 0.020983996 -0.13654625 -0.058568474 0.032331232 -0.20114532
0.0038402237 0.113487154 0.18225141 -0.02634845 0.04660697 -0.210411 -0.055861983 0.16143796
00000000: bdb0 c7b9 2899 333e 4ae7 333e de28 983d
00000010: 372d 20be 300c a13d 92dc 403e 5c47 7c3d
00000020: 5db5 42be 6e58 4e3e b6ce af3d 1dac 0dbe
00000030: 3572 223e ef90 06be 718e 81bc 73ee 02be
00000040: 57fe c8bd 22f8 10be a7b3 59be a1e6 ab3c
00000050: c8d2 0bbe 7fe5 6fbd c16d 043d 0af9 4dbe
00000060: 43ac 7b3b f46b e83d 1da0 3a3e b4d8 d7bc
00000070: f3e6 3e3d fb75 57be 89cf 64bd fe4f 253e

prox.1.conv2.weight f4 [32, 32, 3, 3]
-0.087106794 -0.031386215 -0.027066506 -0.06757037 0.04630826 0.005894636 -0.045463525 0.04753453
0.041578386 0.008732451 0.024110679 0.0033566935 -0.02970382 -0.0047625154 -0.030811094 -0.017008286
0.07519719 -0.05596751 -0.020200241 0.00934505 0.019524265 -0.05707054 -0.03337587 -0.028764566
0.016933825 0.022980332 -0.0019308003 0.025164833 -0.00039430428 -0.029490827 0.036578037 -0.013922229
-0.0035382276 0.008213457 0.04835864 0.045875046 0.036185555 0.044463914 -0.06682277 0.043807663
0.04927555 0.010860002 0.045668423 0.07715041 0.0037112955 -0.065941766 0.057962257 -0.00058815035
-0.010869427 0.009429397 0.033623803 -0.05621303 0.011163679 0.020192895 -0.0068897903 -0.042181145
0.037844416 0.041383244 -0.039986953 0.052213907 -0.0034657756 0.029289188 0.02636167 0.006665624
0.05683548 -0.08122492 -0.0364013 0.03652711 -0.051120657 0.039817177 0.04495255 -0.031462308
0.017583923 -0.020566296 -0.04028908 -0.037773646 0.068040445 -0.1042907 0.030786328 -0.013562425
-0.08547846 -0.020755455 0.03591253 0.024347449 -0.0062784213 0.06871387 -0.034391884 -0.03181778
-0.0053741797 -0.0048829145 -0.048781734 0.0782795 0.032612063 0.008555753 0.055881 0.053400725
0.0037347793 0.04190327 -0.0256523 -0.06367925 0.01260234 -0.037445385 0.024242958 -0.050545797
-0.04713646 0.05840077 0.058560837 -0.070309326 -0.015706997 0.01184681 -0.037952863 -0.0036426515
-0.058782995 0.0059015383 0.00997652 -0.019580027 -0.050046604 0.023539925 0.06785864 0.03724915
0.0037796216 -0.04430667 -0.024790585 0.0037762227 -0.03200111 0.01976225 0.046616983 0.00059981196
-0.013164029 -0.032124605 0.021649975 0.07959608 -0.023177864 0.024441494 0.0131499 -0.023313431
0.0745097 0.05895409 0.011852364 0.063071854 0.014872539 -0.070066705 0.051914293 0.052279644
-0.012889947 0.021198226 -0.04188485 -0.063886635 0.07914896 -0.046840876 -0.012875839 0.06530928
0.04523654 -0.02079842 -0.06890658 0.01740856 0.02933117 -0.027096575 -0.031943038 0.08427903
-0.02887765 0.03455696 -0.016361164 0.00044490653 -0.10422698 0.03318364 0.046812158 -0.07329783
0.0055380072 0.114177205 -0.016650883 -0.021200396 0.029906977 -0.013255043 0.0060976073 0.0732772
0.079378724 0.0017196031 0.08362307 0.0010492983 -0.071935005 0.0057708747 0.027143171 -0.07473851
-0.08423704 0.098892175 0.046991445 0.00414138 0.019785842 -0.088901445 0.012145737 -0.00851694
0.032111686 -0.054808162 0.10787558 -0.026496459 -0.08400264 0.054595023 -0.005254406 -0.017176736
-0.010224685 0.031227253 -0.045702517 -0.024432547 0.057404757 0.030481914 0.010559969 0.025171785
0.009805359 0.042842895 -0.07987186 0.015687624 0.008573316 -0.006822517 -0.052925464 -0.043464493
0.00640515 -0.06086065 -0.07494913 0.05571393 0.036979664 -0.06543594 0.016412167 0.0028079562
0.020286452 0.03738604 0.008597573 0.005257568 0.07375925 -0.039795313 -0.015196745 -0.04982432
0.05358035 0.032727383 0.021028403 0.030064316 0.023966128 -0.03824307 -0.061308846 0.068068534
0.061082046 0.036582682 -0.031591553 0.008199357 -0.020778803 -0.0025271843 0.009345932 -0.0036625406
-0.022695933 -0.023071285 0.05500624 0.0314616 0.057357498 0.030544007 -0.039960958 0.031695623
00000000: 0c65 b2bd d58e 00bd 94ba ddbc 5662 8abd
00000010: bbad 3d3d ca27 c13b f637 3abd 91b3 423d
00000020: 194e 2a3d 8e12 0f3c c283 c53c f9fb 5b3b
00000030: 6d55 f3bc e00e 9cbb 8c67 fcbc f654 8bbc
00000040: fc00 9a3d 303e 65bd fa7a a5bc fb1b 193c
00000050: 5af1 9f3c ccc2 69bd 23b5 08bd aba3 ebbc
00000060: ceb8 8a3c 4041 bc3c e812 fdba 7b26 ce3c
00000070: a0ba ceb9 bf96 f1bc dad2 153d 101a 64bc
00000080: 9ce1 67bb bc91 063c b613 463d 79e7 3b3d
00000090: 4e37 143d cb1f 363d 60da 88bd aa6f 333d
000000a0: 29d5 493d 26ee 313c d00e 3b3d 0901 9e3d
000000b0: 3539 733b 7a0c 87bd d569 6d3d 1a2e 1aba
000000c0: ae15 32bc c27d 1a3c 1db9 093d a23f 66bd
000000d0: dde7 363c 926b a53c c0c3 e1bb 23c6 2cbd
000000e0: bf02 1b3d 7a81 293d 5cc9 23bd 40de 553d
000000f0: 1122 63bb e1ef ef3c 6ef4 d73c 4f6b da3b
00000100: 52cc 683d 4059 a6bd 8819 15bd 739d 153d
00000110: e563 51bd 5617 233d 2a20 383d 9fde 00bd
00000120: 290c 903c a67a a8bc 2a06 25bd 8ab8 1abd
00000130: ca58 8b3d 5d96 d5bd 9c33 fc3c ef34 5ebc
00000140: 550f afbd 5807 aabc 0419 133d 4d74 c73c
00000150: 37bb cdbb dcb9 8c3d 81de 0cbd 5c53 02bd
00000160: e319 b0bb db00 a0bb 5bcf 47bd 0151 a03d
00000170: 3a94 053d 6e2d 0c3c 7ae3 643d b8ba 5a3d
00000180: 33c3 743b c3a2 2b3d c624 d2bc 446a 82bd
00000190: 0c7a 4e3c 5560 19bd 2b99 c63c 1c09 4fbd
000001a0: 2912 41bd a535 6f3d 7ddd 6f3d 56fe 8fbd
000001b0: f6ab 80bc 1f19 423c 7674 1bbd 8db9 6ebb
000001c0: 70c6 70bd b161 c13b 8f74 233c 4b66 a0bc
000001d0: abfd 4cbd cdd6 c03c 78f9 8a3d 9192 183d
000001e0: 87b3 773b e97a 35bd a015 cbbc 817a 773b
000001f0: 9913 03bd 71e4 a13c 73f1 3e3d b33c 1d3a
00000200: f1ad 57bc 1795 03bd 4a5b b13c 4503 a33d
00000210: 81df bdbc 8739 c83c ae72 573c cffb bebc
00000220: 8b98 983d d879 713d 6b30 423c d12b 813d
00000230: f3ab 733c 227f 8fbd 15a4 543d 2e23 563d
00000240: 5b30 53bc e7a7 ad3c 738f 2bbd ffd6 82bd
00000250: da18 a23d 38dc 3fbd 2ff5 52bc dfc0 853d
00000260: f349 393d 7361 aabc e51e 8dbd 659c 8e3c
00000270: ec47 f03c a3f9 ddbc b4d6 02bd 7c9a ac3d
00000280: d290 ecbc 998b 0d3d d907 86bc 5842 e939
00000290: f474 d5bd 92eb 073d 1bbe 3f3d 2c1d 96bd
000002a0: 2c78 b53b bdd5 e93d 6f67 88bc 74ac adbc
000002b0: 7aff f43c ae2b 59bc 70ce c73b 5b12 963d
000002c0: 5091 a23d 4e64 e13a 9242 ab3d 9c88 893a
000002d0: a952 93bd 9b19 bd3b 5b5b de3c 8110 99bd
000002e0: 7884 acbd fb87 ca3d 1a7a 403d 6ab4 873b
000002f0: eb15 a23c f611 b6bd eafe 463c a38a 0bbc
00000300: 8b87 033d 867e 60bd dfed dc3d 1a0f d9bc
00000310: 9309 acbd 089f 5f3d 272d acbb 3ab6 8cbc
00000320: 7085 27bc 4cd0 ff3c 9032 3bbd c426 c8bc
00000330: 4021 6b3d 35b5 f93c b803 2d3c 0f35 ce3c
00000340: a8a6 203c 087c 2f3d dc93 a3bd 5583 803c
00000350: 1877 0c3c 6c8f dfbb 5fc8 58bd d307 32bd
00000360: 4be2 d13b 0449 79bd ee7e 99bd 4a34 643d
00000370: fd77 173d 4703 86bd cf72 863c b005 383b
00000380: c62f a63c 1b22 193d d6dc 0c3c ad47 ac3b
00000390: 170f 973d 6900 23bd c5fb 78bc 9614 4cbd
000003a0: 1277 5b3d 260d 063d c243 ac3c 7149 f63c
000003b0: 9d54 c43c c4a4 1cbd fc1e 7bbd 8467 8b3d
000003c0: 2b31 7a3d b9d7 153d 2566 01bd 9956 063c
000003d0: 4f38 aabc 1e9f 25bb ae1f 193c 3c07 70bb
000003e0: d2ec b9bc feff bcbc 394e 613d e1dd 003d
000003f0: b2ef 6a3d 6d37 fa3c 1aae 23bd 45d3 013d

prox.1.conv2.bias f4 [32]
0.06425616 0.042820908 0.018291652 -0.040828124 -0.011231697 0.03810021 -0.035949424 0.057100255
0.00675513 0.0406153 -0.0060414816 0.01900439 -0.019809667 0.06428979 0.028350806 -0.008279814
-0.01161935 0.027209396 0.024800096 0.0125438925 -0.007764894 -0.001603562 0.047714032 0.0053464915
0.018429896 0.059489876 0.0231054 0.06144922 0.05443076 0.058396846 -0.024474146 -0.030148078
00000000: bc98 833d fa64 2f3d 60d8 953c 643b 27bd
00000010: 2705 38bc f70e 1c3d b43f 13bd f5e1 693d
00000020: 235a dd3b 3b5c 263d 9ff7 c5bb 18af 9b3c
00000030: e247 a2bc 5eaa 833d f33f e83c 0fa8 07bc
00000040: 165f 3ebc 3de6 de3c 9229 cb3c e684 4d3c
00000050: a770 febb 9d2e d2ba ca6f 433d 9f31 af3b
00000060: 4bfa 963c a8ab 733d 8947 bd3c 2db2 7b3d
00000070: caf2 5e3d 8831 6f3d 017e c8bc 1af9 f6bc

prox.1.conv3.weight f4 [1, 32, 3, 3]
-0.058117844 0.0044064266 0.064738244 0.010392723 -0.06804061 0.03663068 0.03409894 -0.057774402
0.02129679 0.021699056 -0.021670382 0.016512321 -0.0015051143 -0.019060148 0.0034099412 0.050626256
-0.023472056 -0.032818977 -0.06627514 -0.053950805 0.033300187 0.021848496 0.022400217 0.052546933
-0.025006495 0.0038695587 0.051657937 0.04742317 0.06928125 -0.045272484 0.0494028 0.01211186
0.015193951 0.07883961 0.065973185 -0.023620596 0.009288236 -0.0530035 -0.038221657 -0.03154206
0.00527803 -0.030761603 0.0019944673 0.008190408 -0.004970102 -0.030658893 0.056665115 0.02756717
-0.059716225 0.009863132 0.03974801 0.026409134 0.01566136 -0.05836475 -0.058476813 -0.012888663
-0.06718193 -0.022093697 -0.016113548 0.039373614 -0.036925998 0.033051345 0.06013305 0.013548391
0.07118739 0.04861973 -0.04601679 0.0366567 0.055773403 0.045305267 0.002051454 0.07250534
0.06737552 -0.013113857 -0.045373313 0.070030555 0.05680288 0.05315212 0.022614924 0.046715606
-0.052197542 0.002359182 -0.00917564 -0.045203026 -0.032462526 0.017750632 -0.037876587 -0.0039410996
0.0013635361 -0.032005414 -0.05610877 0.062178463 0.05461195 0.014039857 0.06934088 -0.016688792
-0.031386234 -0.05735478 0.02715432 -0.0654418 0.022155628 -0.027428318 -0.06815536 -0.07232522
0.06397246 0.035584062 -0.024998993 0.066073686 0.06979095 0.030812738 0.06313727 0.0030755908
-0.02958902 -0.024587281 -0.008235353 0.016133158 -0.008778055 0.043614063 0.0051714913 0.018884728
0.07038809 0.021116976 0.018854562 -0.047225174 0.0548682 0.041839194 0.040305015 0.0052629746
0.032348283 0.03577631 -0.034602694 0.04796713 -0.07014065 -0.05859901 -0.028511269 0.019469274
-0.0076715024 -0.030942747 -0.05191144 -0.019668508 -0.027090812 -0.05887589 0.03587978 0.05253289
0.038243607 0.04829252 -0.04853272 0.05438873 0.018377652 0.020415176 0.009599786 -0.008284234
0.04480725 -0.05639345 -0.007841959 -0.063229226 -0.028556265 0.038950462 0.041631907 0.053597983
0.03283244 -0.04117354 -0.0010455307 0.009761911 0.05715793 -0.041827276 -0.018125443 0.06759201
-0.029237106 0.012760995 0.01146018 0.035221994 -0.014358163 0.04717202 -0.03830225 -0.076182954
-0.039265193 0.011500692 -0.02003479 -0.05442984 -0.05884345 0.008789787 -0.02515732 -0.02961347
-0.048201293 -0.008861304 -0.018514078 0.056896187 -0.014963538 -0.0127505455 0.05011558 -0.056274418
0.03629353 0.07598339 -0.017645534 0.05373895 0.060504097 0.0571363 -0.04135427 0.0067450013
-0.05478739 -0.070272796 -0.054872554 -0.051661033 -0.06605205 0.037235107 -0.03212423 -0.01378828
0.040672198 -0.02003622 0.04975749 0.012925477 -0.022675442 0.031759955 0.007806487 0.060665198
-0.004450194 -0.061367806 -0.00043871778 0.034795307 -0.021010002 -0.05335526 -0.017411653 0.027479324
0.05976195 0.017760519 0.029975088 -0.07142411 -0.028305326 0.0129216155 -0.025076812 -0.042689476
0.016374731 -0.004292401 0.028649997 0.017844824 -0.032493208 0.02417679 0.0299915 0.039231338
-0.033384874 0.05739646 0.07255334 -0.0130062625 0.037198737 -0.018257502 0.025483932 0.062164884
0.032700364 0.036049247 0.072508544 -0.010945815 0.029026126 0.068700485 0.048084144 0.041154478
00000000: fa0c 6ebd c963 903b 7c95 843d 3d46 2a3c
00000010: e058 8bbd 0d0a 163d 55ab 0b3d daa4 6cbd
00000020: 9b76 ae3c 38c2 b13c 1686 b1bc d944 873c
00000030: 4147 c5ba 0724 9cbc 5279 5f3b 7a5d 4f3d
00000040: 7848 c0bc 316d 06bd 43bb 87bd 85fb 5cbd
00000050: c765 083d 9efb b23c a980 b73c 743b 573d
00000060: 6cda ccbc 6c98 7d3b 4697 533d cc3e 423d
00000070: 54e3 8d3d a46f 39bd 975a 4a3d d370 463c
00000080: 0df0 783c a976 a13d f31c 873d fb7f c1bc
00000090: af2d 183c 331a 59bd 508e 1cbd 3f32 01bd
000000a0: 53f3 ac3b c2ff fbbc 9cb5 023b 1031 063c
000000b0: 3ddc a2bb 5c28 fbbc ae19 683d 8cd4 e13c
000000c0: 0099 74bd f998 213c cfce 223d f857 d83c
000000d0: 414c 803c e00f 6fbd 6285 6fbd f92a 53bc
000000e0: ae96 89bd d7fd b4bc 8f00 84bc 3a46 213d
000000f0: b73f 17bd d960 073d 134e 763d 12fa 5d3c
00000100: b2ca 913d 7b25 473d 1a7c 3cbd 5625 163d
00000110: a772 643d 0492 393d b071 063b ae7d 943d
00000120: 2dfc 893d 81db 56bc 5ed9 39bd 2e6c 8f3d
00000130: 23aa 683d 0ab6 593d ef42 b93c dd58 3f3d
00000140: 17cd 55bd 829c 1a3b 6c55 16bc cf26 39bd
00000150: 6df7 04bd c669 913c 7b24 1bbd 5724 81bb
00000160: aeb8 b23a 1c18 03bd 4fd2 65bd d8ae 7e3d
00000170: c8b0 5f3d 6e07 663c 9702 8e3d efb6 88bc
00000180: da8e 00bd d9ec 6abd bd72 de3c 5a06 86bd
00000190: b87f b53c 5ab1 e0bc 0a95 8bbd 3f1f 94bd
000001a0: fe03 833d 98c0 113d b0ca ccbc a451 873d
000001b0: 8fee 8e3d ff6a fc3c 1d4e 813d da8f 493b
000001c0: ac64 f2bc 446b c9bc 93ed 06bc af29 843c
000001d0: d5d1 0fbc a9a4 323d 9d75 a93b 25b4 9a3c
000001e0: a227 903d 82fd ac3c e274 9a3c 2f6f 41bd
000001f0: 7abd 603d 935f 2b3d df16 253d 0875 ac3b
00000200: a27f 043d 2e8a 123d 8ebb 0dbd 2e79 443d
00000210: e7a5 8fbd 8405 70bd 7790 e9bc 077e 9f3c
00000220: 3a61 fbbb a57b fdbc 17a1 54bd da1f a1bc
00000230: 8ded ddbc d827 71bd adf6 123d ba2c 573d
00000240: 54a5 1c3d 61ce 453d 3fca 46bd b8c6 5e3d
00000250: bb8c 963c ba3d a73c 6c48 1d3c 99ba 07bc
00000260: cf87 373d d1fc 66bd 8f7b 00bc 537e 81bd
00000270: d4ee e9bc 858a 1f3d 3886 2a3d 8f89 5b3d
00000280: 4f7b 063d 96a5 28bd 300a 89ba 6cf0 1f3c
00000290: 6f1e 6a3d 1453 2bbd cf7b 94bc ae6d 8a3d
000002a0: a882 efbc 7e13 513c 7bc3 3b3c f044 103d
000002b0: 803e 6bbc 7337 413d d2e2 1cbd cf05 9cbd
000002c0: 8ad4 20bd 666d 3c3c 0020 a4bc d3f1 5ebd
000002d0: d405 71bd 0a03 103c b916 cebc f397 f2bc
000002e0: b86e 45bd 012f 11bc d6aa 97bc fa0b 693d
000002f0: a129 75bc aae7 50bc ff45 4d3d 0180 66bd
00000300: 86a8 143d 2e9d 9b3d 5e8d 90bc 601d 5c3d
00000310: 25d3 773d c107 6a3d 1863 29bd 2c05 dd3b
00000320: be68 60bd 2feb 8fbd 0bc2 60bd 859a 53bd
00000330: 4c46 87bd d783 183d b294 03bd 3de8 61bc
00000340: e497 263d 0023 a4bc 83ce 4b3d 61c5 533c
00000350: d9c1 b9bc ba16 023d 8fcd ff3b 127c 783d
00000360: efd2 91bb cf5c 7bbd b403 e6b9 8685 0e3d
00000370: 2b1d acbc 0c8b 5abd e2a2 8ebc 521c e13c
00000380: f2c8 743d 827e 913c 518e f53c ce46 92bd
00000390: 92e0 e7bc 2fb5 533c e36d cdbc 29db 2ebd
000003a0: 4d24 863c 45a7 8cbb 66b3 ea3c 4f2f 923c
000003b0: 9917 05bd 670e c63c bcb0 f53c 0ab1 203d
000003c0: 94be 08bd 8d18 6b3d d896 943d 3818 55bc
000003d0: b45d 183d c290 95bc aec3 d03c 9ba0 7e3d
000003e0: d1f0 053d 60a8 133d 5c7f 943d 1356 33bc
000003f0: 33c8 ed3c d7b2 8c3d e1f3 443d 9991 283d

prox.2.conv1.weight f4 [32, 2, 3, 3]
0.18928364 0.16623141 0.18051273 0.09714512 0.27187204 -0.13532722 0.08057122 0.1307366
0.22013721 0.22265871 -0.10367559 0.07711497 -0.051924825 -0.100354314 -0.023471806 -0.059250224
-0.1286234 -0.19221033 -0.18056966 0.21011715 0.09146774 0.16218744 -0.017320722 -0.08547543
0.03477087 0.11228325 -0.20293312 0.02197457 0.08545838 -0.20729539 -0.22576702 0.0016079949
-0.14043562 -0.14692384 -0.26319674 -0.11170907 -0.049660068 0.12637928 0.15117094 0.1512924
0.16334437 0.18698974 -0.16106895 0.19077393 0.113310166 0.07031364 -0.12138359 0.15423296
-0.15742074 0.07835144 0.014928725 0.020394538 0.15165775 0.18074733 -0.2284042 0.038893063
0.16905881 0.1463849 0.08495132 -0.020657383 0.15899713 0.25464386 0.20151632 -0.02580105
0.07370685 -0.0686549 0.10221855 -0.12367623 0.08958086 -0.019321142 0.021333886 0.2462253
0.07114266 0.09996895 -0.018600065 -0.26482895 -0.20452343 0.161972 0.021005059 0.017437976
0.10958338 -0.08977868 -0.18511307 0.1531186 0.1225796 0.102293804 0.13008857 0.050284754
-0.092431895 0.17095532 0.010794621 -0.2553392 0.016592074 -0.049257334 -0.2076992 -0.14426549
0.030238302 -0.19121093 0.069889046 0.0573539 0.24391206 0.057498332 0.23209834 -0.16278136
-0.12746213 0.014889742 -0.157826 0.045474086 -0.1621365 -0.0053059827 0.15668486 -0.0422317
0.22663991 0.09374321 -0.06656813 -0.04173983 0.045338593 -0.036762163 0.099871226 -0.050379626
0.21490431 0.2534248 -0.06568705 0.04759317 0.008193731 0.16877012 0.09275507 0.05766263
0.01631739 -0.017087959 0.07426966 -0.013129799 0.080312096 -0.105496176 -0.14370616 0.24081919
0.071878456 0.22391313 -0.13409437 0.17151111 0.16512054 0.029923184 -0.13362536 0.06028999
-0.1720226 -0.22851864 0.16666171 -0.26470083 -0.09250747 -0.06404802 -0.13927437 0.15806483
-0.09676132 0.0395574 -0.06505348 -0.16203146 -0.05499353 -0.22871402 -0.17997502 0.038835537
0.04458862 -0.00995216 0.13934518 -0.036748216 0.09241457 0.0219466 0.19776124 0.12619908
0.022806983 -0.104112975 -0.13164228 -0.026854752 -0.027762756 0.17109786 0.1748933 0.1797876
-0.11799067 -0.099035084 -0.09518023 0.19155242 -0.0679388 0.110922925 -0.072153 0.016343247
0.0043708785 -0.20942041 -0.2240641 -0.088229254 -0.21764463 -0.13965973 0.01075487 0.12221534
-0.10503398 -0.14745355 0.1673247 0.22222726 0.0084913075 0.19327839 -0.20271927 -0.18591113
0.18330319 0.12679984 -0.15591365 0.07255546 0.14053811 -0.2162092 -0.2374106 0.13655412
0.018088197 -0.050105438 -0.05196876 -0.059614588 -0.0012823353 -0.03817228 0.11461107 -0.1921921
0.20066465 0.17897467 -0.016034892 0.22789587 -0.1374004 -0.12806863 -0.2814345 -0.12352079
-0.25918558 0.16807853 -0.03660255 -0.054249495 0.25422624 -0.1416429 -0.06697638 0.07049742
0.106255576 -0.18867941 0.094432265 -0.14607681 -0.14871743 -0.03466019 0.095506966 0.0013430353
-0.20930026 0.019095737 -0.096574634 0.070770904 -0.17255132 0.23666199 0.24447235 -0.07698718
-0.019045707 0.03883168 0.0669461 0.1636294 0.2385629 -0.06542555 0.1166843 0.011247496
00000000: 92d3 413e 9138 2a3e 54d8 383e 05f4 c63d
00000010: d032 8b3e 3893 0abe 8602 a53d d1df 053e
00000020: a66b 613e a500 643e de53 d4bd 74ee 9d3d
00000030: 20af 54bd 9086 cdbd f247 c0bc 5db0 72bd
00000040: dab5 03be c9d2 44be 41e7 38be f328 573e
00000050: 7053 bb3d 7714 263e 30e4 8dbc be0d afbd
00000060: e66b 0e3d c3f4 e53d b3cd 4fbe 0304 b43c
00000070: ce04 af3d 3e45 54be 782f 67be 5bc3 d23a
00000080: 5bce 0fbe 3473 16be b9c1 86be bac7 e4bd
00000090: 5b68 4bbd 9269 013e 8ecc 1a3e 65ec 1a3e
000000a0: bf43 273e 3d7a 3f3e 42ef 24be 3e5a 433e
000000b0: 290f e83d 9900 903d f697 f8bd 3fef 1d3e
000000c0: e732 21be b876 a03d 9c97 743c 7212 a73c
000000d0: 2b4c 1b3e d415 393e cae2 69be 554e 1f3d
000000e0: c11d 2d3e ece5 153e f5fa ad3d ac39 a9bc
000000f0: 25d0 223e ae60 823e 4b5a 4e3e b95c d3bc
00000100: 9ef3 963d f19a 8cbd f657 d13d f749 fdbd
00000110: 2c76 b73d 5f47 9ebc 67c4 ae3c 7c22 7c3e
00000120: 3eb3 913d 85bc cc3d 2a5f 98bc a997 87be
00000130: 976e 51be fddb 253e cd12 ac3c 16da 8e3c
00000140: 406d e03d e2dd b7bd 488e 3dbe 1fcb 1c3e
00000150: 030b fb3d 6a7f d13d f035 053e 63f7 4d3d
00000160: ef4c bdbd e90e 2f3e ecdb 303c d2bb 82be
00000170: 1aec 873c 0fc2 49bd 19af 54be 55ba 13be
00000180: 51b6 f73c cccc 43be fd21 8f3d eceb 6a3d
00000190: 15c4 793e 5f83 6b3d 30ab 6d3e 28b0 26be
000001a0: 6f85 02be 1bf4 733c 249d 21be 0943 3a3d
000001b0: 1c07 26be cfdd adbb ff71 203e 26fb 2cbd
000001c0: 4b14 683e 71fc bf3d df54 88bd 62f7 2abd
000001d0: f6b4 393d ec93 16bd 4989 cc3d de5a 4ebd
000001e0: e00f 5c3e e5c0 813e ef86 86bd 0ef1 423d
000001f0: 003f 063c 13d2 2c3e 5ff6 bd3d a62f 6c3d
00000200: 0cac 853c 0cfc 8bbc b11a 983d 5e1e 57bc
00000210: ab7a a43d 610e d8bd b527 13be 4e99 763e
00000220: 0335 933d 7c49 653e 0950 09be 9ca0 2f3e
00000230: 5c15 293e 7721 f53c 16d5 08be a3f2 763d
00000240: b126 30be ca00 6abe 5ea9 2a3e de86 87be
00000250: 8e74 bdbd 9c2b 83bd f19d 0ebe bfdb 213e
00000260: cd2a c6bd f106 223d c23a 85bd 93eb 25be
00000270: e540 61bd 0234 6abe 5f4b 38be 0312 1f3d
00000280: 8fa2 363d 620e 23bc 81b0 0e3e 4c85 16bd
00000290: da43 bd3d 5bc9 b33c ec81 4a3e 553a 013e
000002a0: b6d5 ba3c 2f39 d5bd 3ccd 06be 7ffe dbbc
000002b0: b86e e3bc 4734 2f3e 3b17 333e 3e1a 383e
000002c0: 18a5 f1bd e8d2 cabd daed c2bd 5126 443e
000002d0: 7f23 8bbd 8f2b e33d f4c4 93bd 46e2 853c
000002e0: 9639 8f3b 4e72 56be 0f71 65be 8ab1 b4bd
000002f0: 3cde 5ebe f602 0fbe 3235 303c 094c fa3d
00000300: 0e1c d7bd 10fe 16be 2b57 2b3e 8b8f 633e
00000310: 201f 0b3c c5ea 453e a495 4fbe 7d5f 3ebe
00000320: d5b3 3b3e d1d7 013e d4a7 1fbe f597 943d
00000330: 39e9 0f3e f265 5dbe c41b 73be d8d4 0b3e
00000340: b32d 943c 5c3b 4dbd 32dd 54bd 6d2e 74bd
00000350: 0814 a8ba 895a 1cbd 35b9 ea3d 02ce 44be
00000360: 097b 4d3e 2345 373e 9b5b 83bc 895d 693e
00000370: b1b2 0cbe 6c24 03be 2f18 90be 78f8 fcbd
00000380: f9b3 84be c71c 2c3e 8eec 15bd b834 5ebd
00000390: f129 823e d60a 11be ea2a 89bd f460 903d
000003a0: 869c d93d 2d35 41be b465 c13d 2995 15be
000003b0: 6249 18be d8f7 0dbd 2899 c33d c908 b03a
000003c0: cf52 56be aa6e 9c3c ecc8 c5bd 56f0 903d
000003d0: 4bb1 30be 8557 723e f656 7a3e 74ab 9dbd
000003e0: be05 9cbc f80d 1f3d 091b 893d 778e 273e
000003f0: d549 743e d5fd 85bd 2ef8 ee3d 6b47 383c

prox.2.conv1.bias f4 [32]
-0.054117378 0.004440213 -0.20966734 -0.11833802 0.17966695 -0.012076328 -0.06468483 -0.015008021
0.22627237 0.11242844 -0.08579115 0.10664746 -0.13078646 0.0417749 0.050301936 0.0041200924
0.21047789 -0.22461545 -0.20934266 0.24086961 -0.20263308 0.12100615 0.1443622 0.088735655
-0.18383136 0.21058455 -0.15865515 -0.15512921 -0.04096681 0.21659206 0.20444778 -0.19694613
00000000: 2faa 5dbd 357f 913b 09b3 56be 345b f2bd
00000010: 9dfa 373e cadb 45bc 7b79 84bd 34e4 75bc
00000020: f2b3 673e e240 e63d 45b3 afbd fc69 da3d
00000030: e3ec 05be 281c 2b3d 6709 4e3d d701 873b
00000040: 8487 573e 9801 66be ec5d 56be 86a6 763e
00000050: 0c7f 4fbe 13d2 f73d afd3 133e 0abb b53d
00000060: 4a3e 3cbe 7aa3 573e 7f76 22be 31da 1ebe
00000070: d0cc 27bd 4fca 5d3e c25a 513e 3fac 49be
